v2d_6 (Conv2D)               (None, 30, 30, 12)   2604        activation_5[0][0]               
__________________________________________________________________________________________________
concatenate_1 (Concatenate)     (None, 30, 30, 36)   0           conv2d_6[0][0]                   
                                                                 conv2d_5[0][0]                   
__________________________________________________________________________________________________
batch_normalization_2 (BatchNor (None, 30, 30, 36)   144         concatenate_1[0][0]              
__________________________________________________________________________________________________
activation_6 (Activation)       (None, 30, 30, 36)   0           batch_normalization_2[0][0]      
__________________________________________________________________________________________________
conv2d_7 (Conv2D)               (None, 30, 30, 12)   3900        activation_6[0][0]               
__________________________________________________________________________________________________
concatenate_2 (Concatenate)     (None, 30, 30, 48)   0           conv2d_7[0][0]                   
                                                                 concatenate_1[0][0]              
__________________________________________________________________________________________________
batch_normalization_3 (BatchNor (None, 30, 30, 48)   192         concatenate_2[0][0]              
__________________________________________________________________________________________________
activation_7 (Activation)       (None, 30, 30, 48)   0           batch_normalization_3[0][0]      
__________________________________________________________________________________________________
conv2d_8 (Conv2D)               (None, 30, 30, 12)   5196        activation_7[0][0]               
__________________________________________________________________________________________________
concatenate_3 (Concatenate)     (None, 30, 30, 60)   0           conv2d_8[0][0]                   
                                                                 concatenate_2[0][0]              
__________________________________________________________________________________________________
batch_normalization_4 (BatchNor (None, 30, 30, 60)   240         concatenate_3[0][0]              
__________________________________________________________________________________________________
activation_8 (Activation)       (None, 30, 30, 60)   0           batch_normalization_4[0][0]      
__________________________________________________________________________________________________
conv2d_9 (Conv2D)               (None, 30, 30, 12)   6492        activation_8[0][0]               
__________________________________________________________________________________________________
concatenate_4 (Concatenate)     (None, 30, 30, 72)   0           conv2d_9[0][0]                   
                                                                 concatenate_3[0][0]              
__________________________________________________________________________________________________
batch_normalization_5 (BatchNor (None, 30, 30, 72)   288         concatenate_4[0][0]              
__________________________________________________________________________________________________
activation_9 (Activation)       (None, 30, 30, 72)   0           batch_normalization_5[0][0]      
__________________________________________________________________________________________________
conv2d_10 (Conv2D)              (None, 30, 30, 12)   7788        activation_9[0][0]               
__________________________________________________________________________________________________
concatenate_5 (Concatenate)     (None, 30, 30, 84)   0           conv2d_10[0][0]                  
                                                                 concatenate_4[0][0]              
__________________________________________________________________________________________________
batch_normalization_6 (BatchNor (None, 30, 30, 84)   336         concatenate_5[0][0]              
__________________________________________________________________________________________________
activation_10 (Activation)      (None, 30, 30, 84)   0           batch_normalization_6[0][0]      
__________________________________________________________________________________________________
conv2d_11 (Conv2D)              (None, 30, 30, 12)   9084        activation_10[0][0]              
__________________________________________________________________________________________________
concatenate_6 (Concatenate)     (None, 30, 30, 96)   0           conv2d_11[0][0]                  
                                                                 concatenate_5[0][0]              
__________________________________________________________________________________________________
batch_normalization_7 (BatchNor (None, 30, 30, 96)   384         concatenate_6[0][0]              
__________________________________________________________________________________________________
activation_11 (Activation)      (None, 30, 30, 96)   0           batch_normalization_7[0][0]      
__________________________________________________________________________________________________
conv2d_12 (Conv2D)              (None, 30, 30, 12)   10380       activation_11[0][0]              
__________________________________________________________________________________________________
concatenate_7 (Concatenate)     (None, 30, 30, 108)  0           conv2d_12[0][0]                  
                                                                 concatenate_6[0][0]              
__________________________________________________________________________________________________
batch_normalization_8 (BatchNor (None, 30, 30, 108)  432         concatenate_7[0][0]              
__________________________________________________________________________________________________
activation_12 (Activation)      (None, 30, 30, 108)  0           batch_normalization_8[0][0]      
__________________________________________________________________________________________________
conv2d_13 (Conv2D)              (None, 30, 30, 96)   10464       activation_12[0][0]              
__________________________________________________________________________________________________
average_pooling2d_1 (AveragePoo (None, 15, 15, 96)   0           conv2d_13[0][0]                  
__________________________________________________________________________________________________
batch_normalization_9 (BatchNor (None, 15, 15, 96)   384         average_pooling2d_1[0][0]        
__________________________________________________________________________________________________
activation_13 (Activation)      (None, 15, 15, 96)   0           batch_normalization_9[0][0]      
__________________________________________________________________________________________________
conv2d_14 (Conv2D)              (None, 15, 15, 12)   10380       activation_13[0][0]              
__________________________________________________________________________________________________
concatenate_8 (Concatenate)     (None, 15, 15, 108)  0           conv2d_14[0][0]                  
                                                                 average_pooling2d_1[0][0]        
__________________________________________________________________________________________________
batch_normalization_10 (BatchNo (None, 15, 15, 108)  432         concatenate_8[0][0]              
__________________________________________________________________________________________________
activation_14 (Activation)      (None, 15, 15, 108)  0           batch_normalization_10[0][0]     
__________________________________________________________________________________________________
conv2d_15 (Conv2D)              (None, 15, 15, 12)   11676       activation_14[0][0]              
__________________________________________________________________________________________________
concatenate_9 (Concatenate)     (None, 15, 15, 120)  0           conv2d_15[0][0]                  
                                                                 concatenate_8[0][0]              
__________________________________________________________________________________________________
batch_normalization_11 (BatchNo (None, 15, 15, 120)  480         concatenate_9[0][0]              
__________________________________________________________________________________________________
activation_15 (Activation)      (None, 15, 15, 120)  0           batch_normalization_11[0][0]     
__________________________________________________________________________________________________
conv2d_16 (Conv2D)              (None, 15, 15, 12)   12972       activation_15[0][0]              
__________________________________________________________________________________________________
concatenate_10 (Concatenate)    (None, 15, 15, 132)  0           conv2d_16[0][0]                  
                                                                 concatenate_9[0][0]              
__________________________________________________________________________________________________
batch_normalization_12 (BatchNo (None, 15, 15, 132)  528         concatenate_10[0][0]             
__________________________________________________________________________________________________
activation_16 (Activation)      (None, 15, 15, 132)  0           batch_normalization_12[0][0]     
__________________________________________________________________________________________________
conv2d_17 (Conv2D)              (None, 15, 15, 12)   14268       activation_16[0][0]              
__________________________________________________________________________________________________
concatenate_11 (Concatenate)    (None, 15, 15, 144)  0           conv2d_17[0][0]                  
                                                                 concatenate_10[0][0]             
__________________________________________________________________________________________________
batch_normalization_13 (BatchNo (None, 15, 15, 144)  576         concatenate_11[0][0]             
__________________________________________________________________________________________________
activation_17 (Activation)      (None, 15, 15, 144)  0           batch_normalization_13[0][0]     
__________________________________________________________________________________________________
conv2d_18 (Conv2D)              (None, 15, 15, 12)   15564       activation_17[0][0]              
__________________________________________________________________________________________________
concatenate_12 (Concatenate)    (None, 15, 15, 156)  0           conv2d_18[0][0]                  
                                                                 concatenate_11[0][0]             
__________________________________________________________________________________________________
batch_normalization_14 (BatchNo (None, 15, 15, 156)  624         concatenate_12[0][0]             
__________________________________________________________________________________________________
activation_18 (Activation)      (None, 15, 15, 156)  0           batch_normalization_14[0][0]     
__________________________________________________________________________________________________
conv2d_19 (Conv2D)              (None, 15, 15, 12)   16860       activation_18[0][0]              
__________________________________________________________________________________________________
concatenate_13 (Concatenate)    (None, 15, 15, 168)  0           conv2d_19[0][0]                  
                                                                 concatenate_12[0][0]             
__________________________________________________________________________________________________
batch_normalization_15 (BatchNo (None, 15, 15, 168)  672         concatenate_13[0][0]             
__________________________________________________________________________________________________
activation_19 (Activation)      (None, 15, 15, 168)  0           batch_normalization_15[0][0]     
__________________________________________________________________________________________________
conv2d_20 (Conv2D)              (None, 15, 15, 12)   18156       activation_19[0][0]              
__________________________________________________________________________________________________
concatenate_14 (Concatenate)    (None, 15, 15, 180)  0           conv2d_20[0][0]                  
                                                                 concatenate_13[0][0]             
__________________________________________________________________________________________________
batch_normalization_16 (BatchNo (None, 15, 15, 180)  720         concatenate_14[0][0]             
__________________________________________________________________________________________________
activation_20 (Activation)      (None, 15, 15, 180)  0           batch_normalization_16[0][0]     
__________________________________________________________________________________________________
conv2d_21 (Conv2D)              (None, 15, 15, 180)  32580       activation_20[0][0]              
__________________________________________________________________________________________________
average_pooling2d_2 (AveragePoo (None, 7, 7, 180)    0           conv2d_21[0][0]                  
__________________________________________________________________________________________________
batch_normalization_17 (BatchNo (None, 7, 7, 180)    720         average_pooling2d_2[0][0]        
__________________________________________________________________________________________________
activation_21 (Activation)      (None, 7, 7, 180)    0           batch_normalization_17[0][0]     
__________________________________________________________________________________________________
conv2d_22 (Conv2D)              (None, 7, 7, 48)     8688        activation_21[0][0]              
__________________________________________________________________________________________________
batch_normalization_18 (BatchNo (None, 7, 7, 48)     192         conv2d_22[0][0]                  
__________________________________________________________________________________________________
activation_22 (Activation)      (None, 7, 7, 48)     0           batch_normalization_18[0][0]     
__________________________________________________________________________________________________
conv2d_23 (Conv2D)              (None, 7, 7, 12)     5196        activation_22[0][0]              
__________________________________________________________________________________________________
concatenate_15 (Concatenate)    (None, 7, 7, 192)    0           conv2d_23[0][0]                  
                                                                 average_pooling2d_2[0][0]        
__________________________________________________________________________________________________
batch_normalization_19 (BatchNo (None, 7, 7, 192)    768         concatenate_15[0][0]             
__________________________________________________________________________________________________
activation_23 (Activation)      (None, 7, 7, 192)    0           batch_normalization_19[0][0]     
__________________________________________________________________________________________________
conv2d_24 (Conv2D)              (None, 7, 7, 48)     9264        activation_23[0][0]              
__________________________________________________________________________________________________
batch_normalization_20 (BatchNo (None, 7, 7, 48)     192         conv2d_24[0][0]                  
__________________________________________________________________________________________________
activation_24 (Activation)      (None, 7, 7, 48)     0           batch_normalization_20[0][0]     
__________________________________________________________________________________________________
conv2d_25 (Conv2D)              (None, 7, 7, 12)     5196        activation_24[0][0]              
__________________________________________________________________________________________________
concatenate_16 (Concatenate)    (None, 7, 7, 204)    0           conv2d_25[0][0]                  
                                                                 concatenate_15[0][0]             
__________________________________________________________________________________________________
batch_normalization_21 (BatchNo (None, 7, 7, 204)    816         concatenate_16[0][0]             
__________________________________________________________________________________________________
activation_25 (Activation)      (None, 7, 7, 204)    0           batch_normalization_21[0][0]     
__________________________________________________________________________________________________
conv2d_26 (Conv2D)              (None, 7, 7, 48)     9840        activation_25[0][0]              
__________________________________________________________________________________________________
batch_normalization_22 (BatchNo (None, 7, 7, 48)     192         conv2d_26[0][0]                  
__________________________________________________________________________________________________
activation_26 (Activation)      (None, 7, 7, 48)     0           batch_normalization_22[0][0]     
__________________________________________________________________________________________________
conv2d_27 (Conv2D)              (None, 7, 7, 12)     5196        activation_26[0][0]              
__________________________________________________________________________________________________
concatenate_17 (Concatenate)    (None, 7, 7, 216)    0           conv2d_27[0][0]                  
                                                                 concatenate_16[0][0]             
__________________________________________________________________________________________________
batch_normalization_23 (BatchNo (None, 7, 7, 216)    864         concatenate_17[0][0]             
__________________________________________________________________________________________________
activation_27 (Activation)      (None, 7, 7, 216)    0           batch_normalization_23[0][0]     
__________________________________________________________________________________________________
conv2d_28 (Conv2D)              (None, 7, 7, 48)     10416       activation_27[0][0]              
__________________________________________________________________________________________________
batch_normalization_24 (BatchNo (None, 7, 7, 48)     192         conv2d_28[0][0]                  
__________________________________________________________________________________________________
activation_28 (Activation)      (None, 7, 7, 48)     0           batch_normalization_24[0][0]     
__________________________________________________________________________________________________
conv2d_29 (Conv2D)              (None, 7, 7, 12)     5196        activation_28[0][0]              
__________________________________________________________________________________________________
concatenate_18 (Concatenate)    (None, 7, 7, 228)    0           conv2d_29[0][0]                  
                                                                 concatenate_17[0][0]             
__________________________________________________________________________________________________
batch_normalization_25 (BatchNo (None, 7, 7, 228)    912         concatenate_18[0][0]             
__________________________________________________________________________________________________
activation_29 (Activation)      (None, 7, 7, 228)    0           batch_normalization_25[0][0]     
__________________________________________________________________________________________________
conv2d_30 (Conv2D)              (None, 7, 7, 48)     10992       activation_29[0][0]              
__________________________________________________________________________________________________
batch_normalization_26 (BatchNo (None, 7, 7, 48)     192         conv2d_30[0][0]                  
__________________________________________________________________________________________________
activation_30 (Activation)      (None, 7, 7, 48)     0           batch_normalization_26[0][0]     
__________________________________________________________________________________________________
conv2d_31 (Conv2D)              (None, 7, 7, 12)     5196        activation_30[0][0]              
__________________________________________________________________________________________________
concatenate_19 (Concatenate)    (None, 7, 7, 240)    0           conv2d_31[0][0]                  
                                                                 concatenate_18[0][0]             
__________________________________________________________________________________________________
batch_normalization_27 (BatchNo (None, 7, 7, 240)    960         concatenate_19[0][0]             
__________________________________________________________________________________________________
activation_31 (Activation)      (None, 7, 7, 240)    0           batch_normalization_27[0][0]     
__________________________________________________________________________________________________
conv2d_32 (Conv2D)              (None, 7, 7, 48)     11568       activation_31[0][0]              
__________________________________________________________________________________________________
batch_normalization_28 (BatchNo (None, 7, 7, 48)     192         conv2d_32[0][0]                  
__________________________________________________________________________________________________
activation_32 (Activation)      (None, 7, 7, 48)     0           batch_normalization_28[0][0]     
__________________________________________________________________________________________________
conv2d_33 (Conv2D)              (None, 7, 7, 12)     5196        activation_32[0][0]              
__________________________________________________________________________________________________
concatenate_20 (Concatenate)    (None, 7, 7, 252)    0           conv2d_33[0][0]                  
                                                                 concatenate_19[0][0]             
__________________________________________________________________________________________________
batch_normalization_29 (BatchNo (None, 7, 7, 252)    1008        concatenate_20[0][0]             
__________________________________________________________________________________________________
activation_33 (Activation)      (None, 7, 7, 252)    0           batch_normalization_29[0][0]     
__________________________________________________________________________________________________
conv2d_34 (Conv2D)              (None, 7, 7, 48)     12144       activation_33[0][0]              
__________________________________________________________________________________________________
batch_normalization_30 (BatchNo (None, 7, 7, 48)     192         conv2d_34[0][0]                  
__________________________________________________________________________________________________
activation_34 (Activation)      (None, 7, 7, 48)     0           batch_normalization_30[0][0]     
__________________________________________________________________________________________________
conv2d_35 (Conv2D)              (None, 7, 7, 12)     5196        activation_34[0][0]              
__________________________________________________________________________________________________
concatenate_21 (Concatenate)    (None, 7, 7, 264)    0           conv2d_35[0][0]                  
                                                                 concatenate_20[0][0]             
__________________________________________________________________________________________________
batch_normalization_31 (BatchNo (None, 7, 7, 264)    1056        concatenate_21[0][0]             
__________________________________________________________________________________________________
activation_35 (Activation)      (None, 7, 7, 264)    0           batch_normalization_31[0][0]     
__________________________________________________________________________________________________
global_average_pooling2d_1 (Glo (None, 264)          0           activation_35[0][0]              
__________________________________________________________________________________________________
dense_1 (Dense)                 (None, 25)           6625        global_average_pooling2d_1[0][0] 
==================================================================================================
Total params: 352,945
Trainable params: 345,457
Non-trainable params: 7,488
__________________________________________________________________________________________________
ytraincat (1696, 35)
ytestcat (424, 35)
PRESUMMARY
ENC MODEL 2
INPUT:::
(1, 128, 128, 1)
OUTPUT:::
(1, 63, 63, 24)
INPUT:::
(1, 128, 128, 1)
OUTPUT:::
(1, 63, 63, 24)
cloning model  layer  2
Model: "model_1"
_________________________________________________________________
Layer (type)                 Output Shape              Param #   
=================================================================
input_1 (InputLayer)         (None, 128, 128, 1)       0         
_________________________________________________________________
conv2d_1 (Conv2D)            (None, 127, 127, 24)      120       
_________________________________________________________________
max_pooling2d_1 (MaxPooling2 (None, 63, 63, 24)        0         
=================================================================
Total params: 120
Trainable params: 120
Non-trainable params: 0
_________________________________________________________________
xtrain shape1: (1696, 1, 63, 63, 24)
xTest shape1: (424, 1, 63, 63, 24)
xtrain shape2 is  (1696, 63, 63, 24)
xtrain3: (1696, 63, 63, 24)
started fit at  2021-09-22 19:26:52.779059
Train on 1696 samples, validate on 424 samples
…
finished fit at  2021-09-22 22:46:41.972029
424/424 [==============================] - 4s 9ms/step
Test loss: 9.843980375325904
Test accuracy: 0.2429245263338089
Model exported and finished
model cloned for layer  3
PRESUMMARY
ENC MODEL 4
INPUT:::
(1, 128, 128, 1)
OUTPUT:::
(1, 62, 62, 48)
INPUT:::
(1, 128, 128, 1)
OUTPUT:::
(1, 62, 62, 48)
cloning model  layer  4
Model: "model_993"
_________________________________________________________________
Layer (type)                 Output Shape              Param #   
=================================================================
input_1 (InputLayer)         (None, 128, 128, 1)       0         
_________________________________________________________________
conv2d_1 (Conv2D)            (None, 127, 127, 24)      120       
_________________________________________________________________
max_pooling2d_1 (MaxPooling2 (None, 63, 63, 24)        0         
_________________________________________________________________
activation_1 (Activation)    (None, 63, 63, 24)        0         
_________________________________________________________________
conv2d_2 (Conv2D)            (None, 62, 62, 48)        4656      
=================================================================
Total params: 4,776
Trainable params: 4,776
Non-trainable params: 0
_________________________________________________________________
xtrain shape1: (1696, 1, 62, 62, 48)
xTest shape1: (424, 1, 62, 62, 48)
xtrain shape2 is  (1696, 62, 62, 48)
xtrain3: (1696, 62, 62, 48)
started fit at  2021-09-22 22:47:13.725937
Train on 1696 samples, validate on 424 samples
…
finished fit at  2021-09-23 00:18:39.271961
424/424 [==============================] - 4s 9ms/step
Test loss: 16.219147484257537
Test accuracy: 0.08254717290401459
Model exported and finished
model cloned for layer  4
PRESUMMARY
ENC MODEL 5
INPUT:::
(1, 128, 128, 1)
OUTPUT:::
(1, 62, 62, 48)
INPUT:::
(1, 128, 128, 1)
OUTPUT:::
(1, 62, 62, 48)
cloning model  layer  5
Model: "model_1477"
_________________________________________________________________
Layer (type)                 Output Shape              Param #   
=================================================================
input_1 (InputLayer)         (None, 128, 128, 1)       0         
_________________________________________________________________
conv2d_1 (Conv2D)            (None, 127, 127, 24)      120       
_________________________________________________________________
max_pooling2d_1 (MaxPooling2 (None, 63, 63, 24)        0         
_________________________________________________________________
activation_1 (Activation)    (None, 63, 63, 24)        0         
_________________________________________________________________
conv2d_2 (Conv2D)            (None, 62, 62, 48)        4656      
_________________________________________________________________
activation_2 (Activation)    (None, 62, 62, 48)        0         
=================================================================
Total params: 4,776
Trainable params: 4,776
Non-trainable params: 0
_________________________________________________________________
xtrain shape1: (1696, 1, 62, 62, 48)
xTest shape1: (424, 1, 62, 62, 48)
xtrain shape2 is  (1696, 62, 62, 48)
xtrain3: (1696, 62, 62, 48)
started fit at  2021-09-23 00:19:33.019924
Train on 1696 samples, validate on 424 samples
…
