2021-09-22 12:08:01.215768: I tensorflow/compiler/xla/service/service.cc:176]   StreamExecutor device (0): Host, Default Version
Model: "model_1"
_________________________________________________________________
Layer (type)                 Output Shape              Param #   
=================================================================
input_1 (InputLayer)         (None, 128, 128, 1)       0         
_________________________________________________________________
conv2d_1 (Conv2D)            (None, 121, 121, 24)      1560      
_________________________________________________________________
max_pooling2d_1 (MaxPooling2 (None, 15, 15, 24)        0         
_________________________________________________________________
conv2d_2 (Conv2D)            (None, 8, 8, 48)          73776     
_________________________________________________________________
activation_1 (Activation)    (None, 8, 8, 48)          0         
_________________________________________________________________
reshape_1 (Reshape)          (None, 64, 48)            0         
_________________________________________________________________
lstm_1 (LSTM)                (None, 64, 64)            28928     
_________________________________________________________________
flatten_1 (Flatten)          (None, 4096)              0         
_________________________________________________________________
dropout_1 (Dropout)          (None, 4096)              0         
_________________________________________________________________
dense_1 (Dense)              (None, 64)                262208    
_________________________________________________________________
activation_2 (Activation)    (None, 64)                0         
_________________________________________________________________
dropout_2 (Dropout)          (None, 64)                0         
_________________________________________________________________
dense_2 (Dense)              (None, 25)                1625      
_________________________________________________________________
activation_3 (Activation)    (None, 25)                0         
=================================================================
Total params: 368,097
Trainable params: 368,097
Non-trainable params: 0
_________________________________________________________________
PRESUMMARY
Model: "model_1"
_________________________________________________________________
Layer (type)                 Output Shape              Param #   
=================================================================
input_1 (InputLayer)         (None, 128, 128, 1)       0         
_________________________________________________________________
conv2d_1 (Conv2D)            (None, 121, 121, 24)      1560      
_________________________________________________________________
max_pooling2d_1 (MaxPooling2 (None, 15, 15, 24)        0         
_________________________________________________________________
conv2d_2 (Conv2D)            (None, 8, 8, 48)          73776     
_________________________________________________________________
activation_1 (Activation)    (None, 8, 8, 48)          0         
_________________________________________________________________
reshape_1 (Reshape)          (None, 64, 48)            0         
_________________________________________________________________
lstm_1 (LSTM)                (None, 64, 64)            28928     
_________________________________________________________________
flatten_1 (Flatten)          (None, 4096)              0         
=================================================================
Total params: 104,264
Trainable params: 104,264
Non-trainable params: 0
_________________________________________________________________
ENC MODEL 8
INPUT:::
(1, 128, 128, 1)
OUTPUT:::
(1, 4096)
INPUT:::
(1, 128, 128, 1)
OUTPUT:::
(1, 4096)
cloning from  flatten_1
startlyr =  8 input-shape -a (?, ?)
8 :layer name is  dropout_1  ;  input_1_2:0
…
(?, 64) ==> activation_2 (?, 64)
11 :layer name is  dropout_2  ;  activation_1_2/Relu:0
(?, 64) ==> dropout_2 (?, 64)
12 :layer name is  dense_2  ;  dropout_3/cond/Merge:0
(?, 64) ==> dense_2 (?, 25)
13 :layer name is  activation_3  ;  dropout_3/cond/Merge:0
(?, 64) ==> activation_3 (?, 25)
nextBr c shape is  (?, 64)
lastDense shape is  (?, 35)
OTHER
NEW
Model: "model_2"
_________________________________________________________________
Layer (type)                 Output Shape              Param #   
=================================================================
input_1 (InputLayer)         (None, 4096)              0         
_________________________________________________________________
dropout_1 (Dropout)          (None, 4096)              0         
_________________________________________________________________
dense_1 (Dense)              (None, 64)                262208    
_________________________________________________________________
activation_1 (Activation)    (None, 64)                0         
_________________________________________________________________
dropout_3 (Dropout)          (None, 64)                0         
_________________________________________________________________
dense_3 (Dense)              (None, 35)                2275      
_________________________________________________________________
activation_3 (Activation)    (None, 35)                0         
=================================================================
Total params: 264,483
Trainable params: 2,275
Non-trainable params: 262,208
_________________________________________________________________
xtrain shape1: (2176, 1, 4096)
xTest shape1: (544, 1, 4096)
@ 8 :xtrain shape1: (2176, 1, 4096)
xtrain shape2 is  (2176, 4096)
xtrain3: (2176, 4096)
started fit at  2021-09-22 12:08:16.973625
…
2176/2176 [==============================] - 0s 46us/step - loss: 3.0267 - acc: 0.1742 - f1_m: 0.0327 - precision_m: 0.6270 - recall_m: 0.0170 - val_loss: 3.0614 - val_acc: 0.1489 - val_f1_m: 0.0450 - val_precision_m: 0.7143 - val_recall_m: 0.0234
finished fit at  2021-09-22 12:08:28.508875
544/544 [==============================] - 0s 26us/step
Test loss: 3.061407299602733
Test accuracy: 0.14889705181121826
Model exported and finished
PRESUMMARY
Model: "model_5"
_________________________________________________________________
Layer (type)                 Output Shape              Param #   
=================================================================
input_1 (InputLayer)         (None, 128, 128, 1)       0         
_________________________________________________________________
conv2d_1 (Conv2D)            (None, 121, 121, 24)      1560      
_________________________________________________________________
max_pooling2d_1 (MaxPooling2 (None, 15, 15, 24)        0         
_________________________________________________________________
conv2d_2 (Conv2D)            (None, 8, 8, 48)          73776     
_________________________________________________________________
activation_1 (Activation)    (None, 8, 8, 48)          0         
_________________________________________________________________
reshape_1 (Reshape)          (None, 64, 48)            0         
_________________________________________________________________
lstm_1 (LSTM)                (None, 64, 64)            28928     
_________________________________________________________________
flatten_1 (Flatten)          (None, 4096)              0         
_________________________________________________________________
dropout_1 (Dropout)          (None, 4096)              0         
=================================================================
Total params: 104,264
Trainable params: 104,264
Non-trainable params: 0
_________________________________________________________________
ENC MODEL 9
INPUT:::
(1, 128, 128, 1)
OUTPUT:::
(1, 4096)
INPUT:::
(1, 128, 128, 1)
OUTPUT:::
(1, 4096)
cloning from  dropout_1
startlyr =  9 input-shape -a (?, ?)
9 :layer name is  dense_1  ;  input_3:0
…
10 :layer name is  activation_2  ;  dense_4/BiasAdd:0
(?, 64) ==> activation_2 (?, 64)
11 :layer name is  dropout_2  ;  activation_4/Relu:0
(?, 64) ==> dropout_2 (?, 64)
12 :layer name is  dense_2  ;  dropout_5/cond/Merge:0
(?, 64) ==> dense_2 (?, 25)
13 :layer name is  activation_3  ;  dropout_5/cond/Merge:0
(?, 64) ==> activation_3 (?, 25)
nextBr c shape is  (?, 64)
lastDense shape is  (?, 35)
OTHER
NEW
Model: "model_6"
_________________________________________________________________
Layer (type)                 Output Shape              Param #   
=================================================================
input_3 (InputLayer)         (None, 4096)              0         
_________________________________________________________________
dense_4 (Dense)              (None, 64)                262208    
_________________________________________________________________
activation_4 (Activation)    (None, 64)                0         
_________________________________________________________________
dropout_5 (Dropout)          (None, 64)                0         
_________________________________________________________________
dense_6 (Dense)              (None, 35)                2275      
_________________________________________________________________
activation_6 (Activation)    (None, 35)                0         
=================================================================
Total params: 264,483
Trainable params: 2,275
Non-trainable params: 262,208
_________________________________________________________________
xtrain shape1: (2176, 1, 4096)
xTest shape1: (544, 1, 4096)
@ 9 :xtrain shape1: (2176, 1, 4096)
xtrain shape2 is  (2176, 4096)
xtrain3: (2176, 4096)
started fit at  2021-09-22 12:08:43.285398
…
2176/2176 [==============================] - 0s 27us/step - loss: 2.9816 - acc: 0.1870 - f1_m: 0.0357 - precision_m: 0.7228 - recall_m: 0.0184 - val_loss: 3.0042 - val_acc: 0.1636 - val_f1_m: 0.0445 - val_precision_m: 0.5810 - val_recall_m: 0.0234
finished fit at  2021-09-22 12:08:50.383769
544/544 [==============================] - 0s 32us/step
Test loss: 3.00417355930104
Test accuracy: 0.16360294818878174
Model exported and finished
PRESUMMARY
Model: "model_9"
_________________________________________________________________
Layer (type)                 Output Shape              Param #   
=================================================================
input_1 (InputLayer)         (None, 128, 128, 1)       0         
_________________________________________________________________
conv2d_1 (Conv2D)            (None, 121, 121, 24)      1560      
_________________________________________________________________
max_pooling2d_1 (MaxPooling2 (None, 15, 15, 24)        0         
_________________________________________________________________
conv2d_2 (Conv2D)            (None, 8, 8, 48)          73776     
_________________________________________________________________
activation_1 (Activation)    (None, 8, 8, 48)          0         
_________________________________________________________________
reshape_1 (Reshape)          (None, 64, 48)            0         
_________________________________________________________________
lstm_1 (LSTM)                (None, 64, 64)            28928     
_________________________________________________________________
flatten_1 (Flatten)          (None, 4096)              0         
_________________________________________________________________
dropout_1 (Dropout)          (None, 4096)              0         
_________________________________________________________________
dense_1 (Dense)              (None, 64)                262208    
=================================================================
Total params: 366,472
Trainable params: 366,472
Non-trainable params: 0
_________________________________________________________________
ENC MODEL 10
INPUT:::
(1, 128, 128, 1)
OUTPUT:::
(1, 64)
INPUT:::
(1, 128, 128, 1)
OUTPUT:::
(1, 64)
cloning from  dense_1
startlyr =  10 input-shape -a (?, 64)
10 :layer name is  activation_2  ;  input_5:0
(?, 64) ==> activation_2 (?, 64)
11 :layer name is  dropout_2  ;  activation_7/Relu:0
(?, 64) ==> dropout_2 (?, 64)
12 :layer name is  dense_2  ;  dropout_7/cond/Merge:0
(?, 64) ==> dense_2 (?, 25)
13 :layer name is  activation_3  ;  dropout_7/cond/Merge:0
(?, 64) ==> activation_3 (?, 25)
nextBr c shape is  (?, 64)
lastDense shape is  (?, 35)
OTHER
NEW
Model: "model_10"
_________________________________________________________________
Layer (type)                 Output Shape              Param #   
=================================================================
input_5 (InputLayer)         (None, 64)                0         
_________________________________________________________________
activation_7 (Activation)    (None, 64)                0         
_________________________________________________________________
dropout_7 (Dropout)          (None, 64)                0         
_________________________________________________________________
dense_7 (Dense)              (None, 35)                2275      
_________________________________________________________________
activation_9 (Activation)    (None, 35)                0         
=================================================================
Total params: 2,275
Trainable params: 2,275
Non-trainable params: 0
_________________________________________________________________
xtrain shape1: (2176, 1, 64)
xTest shape1: (544, 1, 64)
@ 10 :xtrain shape1: (2176, 1, 64)
xtrain shape2 is  (2176, 64)
xtrain3: (2176, 64)
started fit at  2021-09-22 12:09:05.856431
Train on 2176 samples, validate on 544 samples
…
2176/2176 [==============================] - 0s 12us/step - loss: 3.1613 - acc: 0.1797 - f1_m: 0.0224 - precision_m: 0.5882 - recall_m: 0.0115 - val_loss: 3.1785 - val_acc: 0.1489 - val_f1_m: 0.0422 - val_precision_m: 0.7333 - val_recall_m: 0.0219
finished fit at  2021-09-22 12:09:09.886859
544/544 [==============================] - 0s 19us/step
Test loss: 3.1784842014312744
Test accuracy: 0.14889705181121826
Model exported and finished
PRESUMMARY
Model: "model_13"
_________________________________________________________________
Layer (type)                 Output Shape              Param #   
=================================================================
input_1 (InputLayer)         (None, 128, 128, 1)       0         
_________________________________________________________________
conv2d_1 (Conv2D)            (None, 121, 121, 24)      1560      
_________________________________________________________________
max_pooling2d_1 (MaxPooling2 (None, 15, 15, 24)        0         
_________________________________________________________________
conv2d_2 (Conv2D)            (None, 8, 8, 48)          73776     
_________________________________________________________________
activation_1 (Activation)    (None, 8, 8, 48)          0         
_________________________________________________________________
reshape_1 (Reshape)          (None, 64, 48)            0         
_________________________________________________________________
lstm_1 (LSTM)                (None, 64, 64)            28928     
_________________________________________________________________
flatten_1 (Flatten)          (None, 4096)              0         
_________________________________________________________________
dropout_1 (Dropout)          (None, 4096)              0         
_________________________________________________________________
dense_1 (Dense)              (None, 64)                262208    
_________________________________________________________________
activation_2 (Activation)    (None, 64)                0         
=================================================================
Total params: 366,472
Trainable params: 366,472
Non-trainable params: 0
_________________________________________________________________
ENC MODEL 11
INPUT:::
(1, 128, 128, 1)
OUTPUT:::
(1, 64)
INPUT:::
(1, 128, 128, 1)
OUTPUT:::
(1, 64)
cloning from  activation_2
startlyr =  11 input-shape -a (?, 64)
11 :layer name is  dropout_2  ;  input_7:0
…
