…
2021-09-22 07:07:04.738201: I tensorflow/core/platform/profile_utils/cpu_utils.cc:94] CPU Frequency: 2899885000 Hz
2021-09-22 07:07:04.738378: I tensorflow/compiler/xla/service/service.cc:168] XLA service 0x34e08d30 initialized for platform Host (this does not guarantee that XLA will be used). Devices:
2021-09-22 07:07:04.738394: I tensorflow/compiler/xla/service/service.cc:176]   StreamExecutor device (0): Host, Default Version
Model: "model_1"
_________________________________________________________________
Layer (type)                 Output Shape              Param #   
=================================================================
input_1 (InputLayer)         (None, 128, 128, 1)       0         
_________________________________________________________________
conv2d_1 (Conv2D)            (None, 121, 121, 24)      1560      
_________________________________________________________________
max_pooling2d_1 (MaxPooling2 (None, 15, 15, 24)        0         
_________________________________________________________________
conv2d_2 (Conv2D)            (None, 8, 8, 48)          73776     
_________________________________________________________________
activation_1 (Activation)    (None, 8, 8, 48)          0         
_________________________________________________________________
reshape_1 (Reshape)          (None, 64, 48)            0         
_________________________________________________________________
lstm_1 (LSTM)                (None, 64, 64)            28928     
_________________________________________________________________
flatten_1 (Flatten)          (None, 4096)              0         
_________________________________________________________________
dropout_1 (Dropout)          (None, 4096)              0         
_________________________________________________________________
dense_1 (Dense)              (None, 64)                262208    
_________________________________________________________________
activation_2 (Activation)    (None, 64)                0         
_________________________________________________________________
dropout_2 (Dropout)          (None, 64)                0         
_________________________________________________________________
dense_2 (Dense)              (None, 25)                1625      
_________________________________________________________________
activation_3 (Activation)    (None, 25)                0         
=================================================================
Total params: 368,097
Trainable params: 368,097
Non-trainable params: 0
_________________________________________________________________
PRESUMMARY
Model: "model_1"
_________________________________________________________________
Layer (type)                 Output Shape              Param #   
=================================================================
input_1 (InputLayer)         (None, 128, 128, 1)       0         
_________________________________________________________________
conv2d_1 (Conv2D)            (None, 121, 121, 24)      1560      
=================================================================
Total params: 1,560
Trainable params: 1,560
Non-trainable params: 0
_________________________________________________________________
ENC MODEL 2
INPUT:::
(1, 128, 128, 1)
OUTPUT:::
(1, 121, 121, 24)
INPUT:::
(1, 128, 128, 1)
OUTPUT:::
(1, 121, 121, 24)
cloning from  conv2d_1
startlyr =  2 input-shape -a (?, 121, 121, 24)
2 :layer name is  max_pooling2d_1  ;  input_1_2:0
…
(?, 64) ==> activation_2 (?, 64)
11 :layer name is  dropout_2  ;  activation_3_2/Relu:0
(?, 64) ==> dropout_2 (?, 64)
12 :layer name is  dense_2  ;  dropout_3/cond/Merge:0
(?, 64) ==> dense_2 (?, 25)
13 :layer name is  activation_3  ;  dropout_3/cond/Merge:0
(?, 64) ==> activation_3 (?, 25)
nextBr c shape is  (?, 64)
lastDense shape is  (?, 35)
OTHER
NEW
Model: "model_2"
_________________________________________________________________
Layer (type)                 Output Shape              Param #   
=================================================================
input_1 (InputLayer)         (None, 121, 121, 24)      0         
_________________________________________________________________
max_pooling2d_1 (MaxPooling2 (None, 15, 15, 24)        0         
_________________________________________________________________
conv2d_1 (Conv2D)            (None, 8, 8, 48)          73776     
_________________________________________________________________
activation_1 (Activation)    (None, 8, 8, 48)          0         
_________________________________________________________________
reshape_1 (Reshape)          (None, 64, 48)            0         
_________________________________________________________________
lstm_1 (LSTM)                (None, 64, 64)            28928     
_________________________________________________________________
flatten_1 (Flatten)          (None, 4096)              0         
_________________________________________________________________
dropout_1 (Dropout)          (None, 4096)              0         
_________________________________________________________________
dense_1 (Dense)              (None, 64)                262208    
_________________________________________________________________
activation_3 (Activation)    (None, 64)                0         
_________________________________________________________________
dropout_3 (Dropout)          (None, 64)                0         
_________________________________________________________________
dense_3 (Dense)              (None, 35)                2275      
_________________________________________________________________
activation_5 (Activation)    (None, 35)                0         
=================================================================
Total params: 367,187
Trainable params: 2,275
Non-trainable params: 364,912
_________________________________________________________________
xtrain shape1: (2176, 1, 121, 121, 24)
xTest shape1: (544, 1, 121, 121, 24)
xtrain shape2 is  (2176, 121, 121, 24)
xtrain3: (2176, 121, 121, 24)
started fit at  2021-09-22 07:07:22.527193
…
10 :layer name is  activation_2  ;  dense_4/BiasAdd:0
(?, 64) ==> activation_2 (?, 64)
11 :layer name is  dropout_2  ;  activation_8/Relu:0
(?, 64) ==> dropout_2 (?, 64)
12 :layer name is  dense_2  ;  dropout_7/cond/Merge:0
(?, 64) ==> dense_2 (?, 25)
13 :layer name is  activation_3  ;  dropout_7/cond/Merge:0
(?, 64) ==> activation_3 (?, 25)
nextBr c shape is  (?, 64)
lastDense shape is  (?, 35)
OTHER
NEW
Model: "model_6"
_________________________________________________________________
Layer (type)                 Output Shape              Param #   
=================================================================
input_3 (InputLayer)         (None, 15, 15, 24)        0         
_________________________________________________________________
conv2d_3 (Conv2D)            (None, 8, 8, 48)          73776     
_________________________________________________________________
activation_6 (Activation)    (None, 8, 8, 48)          0         
_________________________________________________________________
reshape_3 (Reshape)          (None, 64, 48)            0         
_________________________________________________________________
lstm_3 (LSTM)                (None, 64, 64)            28928     
_________________________________________________________________
flatten_3 (Flatten)          (None, 4096)              0         
_________________________________________________________________
dropout_5 (Dropout)          (None, 4096)              0         
_________________________________________________________________
dense_4 (Dense)              (None, 64)                262208    
_________________________________________________________________
activation_8 (Activation)    (None, 64)                0         
_________________________________________________________________
dropout_7 (Dropout)          (None, 64)                0         
_________________________________________________________________
dense_6 (Dense)              (None, 35)                2275      
_________________________________________________________________
activation_10 (Activation)   (None, 35)                0         
=================================================================
Total params: 367,187
Trainable params: 2,275
Non-trainable params: 364,912
_________________________________________________________________
xtrain shape1: (2176, 1, 15, 15, 24)
xTest shape1: (544, 1, 15, 15, 24)
xtrain shape2 is  (2176, 15, 15, 24)
xtrain3: (2176, 15, 15, 24)
started fit at  2021-09-22 07:14:33.272859
Train on 2176 samples, validate on 544 samples
…
(?, 64) ==> activation_2 (?, 64)
11 :layer name is  dropout_2  ;  activation_13/Relu:0
(?, 64) ==> dropout_2 (?, 64)
12 :layer name is  dense_2  ;  dropout_11/cond/Merge:0
(?, 64) ==> dense_2 (?, 25)
13 :layer name is  activation_3  ;  dropout_11/cond/Merge:0
(?, 64) ==> activation_3 (?, 25)
nextBr c shape is  (?, 64)
lastDense shape is  (?, 35)
OTHER
NEW
Model: "model_10"
_________________________________________________________________
Layer (type)                 Output Shape              Param #   
=================================================================
input_5 (InputLayer)         (None, 8, 8, 48)          0         
_________________________________________________________________
activation_11 (Activation)   (None, 8, 8, 48)          0         
_________________________________________________________________
reshape_5 (Reshape)          (None, 64, 48)            0         
_________________________________________________________________
lstm_5 (LSTM)                (None, 64, 64)            28928     
_________________________________________________________________
flatten_5 (Flatten)          (None, 4096)              0         
_________________________________________________________________
dropout_9 (Dropout)          (None, 4096)              0         
_________________________________________________________________
dense_7 (Dense)              (None, 64)                262208    
_________________________________________________________________
activation_13 (Activation)   (None, 64)                0         
_________________________________________________________________
dropout_11 (Dropout)         (None, 64)                0         
_________________________________________________________________
dense_9 (Dense)              (None, 35)                2275      
_________________________________________________________________
activation_15 (Activation)   (None, 35)                0         
=================================================================
Total params: 293,411
Trainable params: 2,275
Non-trainable params: 291,136
_________________________________________________________________
xtrain shape1: (2176, 1, 8, 8, 48)
xTest shape1: (544, 1, 8, 8, 48)
xtrain shape2 is  (2176, 8, 8, 48)
xtrain3: (2176, 8, 8, 48)
started fit at  2021-09-22 07:15:56.153579
Train on 2176 samples, validate on 544 samples
…
2176/2176 [==============================] - 0s 212us/step - loss: 2.8631 - acc: 0.1907 - f1_m: 0.0260 - precision_m: 0.5819 - recall_m: 0.0133 - val_loss: 2.8125 - val_acc: 0.2022 - val_f1_m: 0.0062 - val_precision_m: 0.4000 - val_recall_m: 0.0031
finished fit at  2021-09-22 07:16:45.566008
544/544 [==============================] - 0s 232us/step
Test loss: 2.812484769260182
Test accuracy: 0.20220588147640228
Model exported and finished
PRESUMMARY
Model: "model_13"
_________________________________________________________________
Layer (type)                 Output Shape              Param #   
=================================================================
input_1 (InputLayer)         (None, 128, 128, 1)       0         
_________________________________________________________________
conv2d_1 (Conv2D)            (None, 121, 121, 24)      1560      
_________________________________________________________________
max_pooling2d_1 (MaxPooling2 (None, 15, 15, 24)        0         
_________________________________________________________________
conv2d_2 (Conv2D)            (None, 8, 8, 48)          73776     
_________________________________________________________________
activation_1 (Activation)    (None, 8, 8, 48)          0         
=================================================================
Total params: 75,336
Trainable params: 75,336
Non-trainable params: 0
_________________________________________________________________
ENC MODEL 5
INPUT:::
(1, 128, 128, 1)
OUTPUT:::
(1, 8, 8, 48)
INPUT:::
(1, 128, 128, 1)
OUTPUT:::
(1, 8, 8, 48)
cloning from  activation_1
startlyr =  5 input-shape -a (?, 8, 8, 48)
5 :layer name is  reshape_1  ;  input_7:0
…
(?, 64) ==> activation_2 (?, 64)
11 :layer name is  dropout_2  ;  activation_16/Relu:0
(?, 64) ==> dropout_2 (?, 64)
12 :layer name is  dense_2  ;  dropout_15/cond/Merge:0
(?, 64) ==> dense_2 (?, 25)
13 :layer name is  activation_3  ;  dropout_15/cond/Merge:0
(?, 64) ==> activation_3 (?, 25)
nextBr c shape is  (?, 64)
lastDense shape is  (?, 35)
OTHER
NEW
Model: "model_14"
_________________________________________________________________
Layer (type)                 Output Shape              Param #   
=================================================================
input_7 (InputLayer)         (None, 8, 8, 48)          0         
_________________________________________________________________
reshape_7 (Reshape)          (None, 64, 48)            0         
_________________________________________________________________
lstm_7 (LSTM)                (None, 64, 64)            28928     
_________________________________________________________________
flatten_7 (Flatten)          (None, 4096)              0         
_________________________________________________________________
dropout_13 (Dropout)         (None, 4096)              0         
_________________________________________________________________
dense_10 (Dense)             (None, 64)                262208    
_________________________________________________________________
activation_16 (Activation)   (None, 64)                0         
_________________________________________________________________
dropout_15 (Dropout)         (None, 64)                0         
_________________________________________________________________
dense_12 (Dense)             (None, 35)                2275      
_________________________________________________________________
activation_18 (Activation)   (None, 35)                0         
=================================================================
Total params: 293,411
Trainable params: 2,275
Non-trainable params: 291,136
_________________________________________________________________
xtrain shape1: (2176, 1, 8, 8, 48)
xTest shape1: (544, 1, 8, 8, 48)
xtrain shape2 is  (2176, 8, 8, 48)
xtrain3: (2176, 8, 8, 48)
started fit at  2021-09-22 07:16:57.518637
Train on 2176 samples, validate on 544 samples
…
2176/2176 [==============================] - 0s 213us/step - loss: 2.8812 - acc: 0.1824 - f1_m: 0.0233 - precision_m: 0.5980 - recall_m: 0.0119 - val_loss: 2.8163 - val_acc: 0.2022 - val_f1_m: 0.0153 - val_precision_m: 0.4000 - val_recall_m: 0.0078
finished fit at  2021-09-22 07:17:45.680891
544/544 [==============================] - 0s 227us/step
Test loss: 2.8162709825179157
Test accuracy: 0.20220588147640228
Model exported and finished
PRESUMMARY
Model: "model_17"
_________________________________________________________________
Layer (type)                 Output Shape              Param #   
=================================================================
input_1 (InputLayer)         (None, 128, 128, 1)       0         
_________________________________________________________________
conv2d_1 (Conv2D)            (None, 121, 121, 24)      1560      
_________________________________________________________________
max_pooling2d_1 (MaxPooling2 (None, 15, 15, 24)        0         
_________________________________________________________________
conv2d_2 (Conv2D)            (None, 8, 8, 48)          73776     
_________________________________________________________________
activation_1 (Activation)    (None, 8, 8, 48)          0         
_________________________________________________________________
reshape_1 (Reshape)          (None, 64, 48)            0         
=================================================================
Total params: 75,336
Trainable params: 75,336
Non-trainable params: 0
_________________________________________________________________
ENC MODEL 6
INPUT:::
(1, 128, 128, 1)
OUTPUT:::
(1, 64, 48)
INPUT:::
(1, 128, 128, 1)
OUTPUT:::
(1, 64, 48)
cloning from  reshape_1
startlyr =  6 input-shape -a (?, 64, 48)
6 :layer name is  lstm_1  ;  input_9:0
…
(?, 64) ==> activation_2 (?, 64)
11 :layer name is  dropout_2  ;  activation_19/Relu:0
(?, 64) ==> dropout_2 (?, 64)
12 :layer name is  dense_2  ;  dropout_19/cond/Merge:0
(?, 64) ==> dense_2 (?, 25)
13 :layer name is  activation_3  ;  dropout_19/cond/Merge:0
(?, 64) ==> activation_3 (?, 25)
nextBr c shape is  (?, 64)
lastDense shape is  (?, 35)
OTHER
NEW
Model: "model_18"
_________________________________________________________________
Layer (type)                 Output Shape              Param #   
=================================================================
input_9 (InputLayer)         (None, 64, 48)            0         
_________________________________________________________________
lstm_9 (LSTM)                (None, 64, 64)            28928     
_________________________________________________________________
flatten_9 (Flatten)          (None, 4096)              0         
_________________________________________________________________
dropout_17 (Dropout)         (None, 4096)              0         
_________________________________________________________________
dense_13 (Dense)             (None, 64)                262208    
_________________________________________________________________
activation_19 (Activation)   (None, 64)                0         
_________________________________________________________________
dropout_19 (Dropout)         (None, 64)                0         
_________________________________________________________________
dense_15 (Dense)             (None, 35)                2275      
_________________________________________________________________
activation_21 (Activation)   (None, 35)                0         
=================================================================
Total params: 293,411
Trainable params: 2,275
Non-trainable params: 291,136
_________________________________________________________________
xtrain shape1: (2176, 1, 64, 48)
xTest shape1: (544, 1, 64, 48)
xtrain shape2 is  (2176, 64, 48)
xtrain3: (2176, 64, 48)
started fit at  2021-09-22 07:17:56.122442
Train on 2176 samples, validate on 544 samples
…
2176/2176 [==============================] - 0s 211us/step - loss: 2.8084 - acc: 0.2013 - f1_m: 0.0215 - precision_m: 0.5327 - recall_m: 0.0110 - val_loss: 2.7529 - val_acc: 0.2132 - val_f1_m: 0.0000e+00 - val_precision_m: 0.0000e+00 - val_recall_m: 0.0000e+00
finished fit at  2021-09-22 07:18:44.667772
544/544 [==============================] - 0s 235us/step
Test loss: 2.7528856361613556
Test accuracy: 0.2132352888584137
Model exported and finished
PRESUMMARY
Model: "model_21"
_________________________________________________________________
Layer (type)                 Output Shape              Param #   
=================================================================
input_1 (InputLayer)         (None, 128, 128, 1)       0         
_________________________________________________________________
conv2d_1 (Conv2D)            (None, 121, 121, 24)      1560      
_________________________________________________________________
max_pooling2d_1 (MaxPooling2 (None, 15, 15, 24)        0         
_________________________________________________________________
conv2d_2 (Conv2D)            (None, 8, 8, 48)          73776     
_________________________________________________________________
activation_1 (Activation)    (None, 8, 8, 48)          0         
_________________________________________________________________
reshape_1 (Reshape)          (None, 64, 48)            0         
_________________________________________________________________
lstm_1 (LSTM)                (None, 64, 64)            28928     
=================================================================
Total params: 104,264
Trainable params: 104,264
Non-trainable params: 0
_________________________________________________________________
ENC MODEL 7
INPUT:::
(1, 128, 128, 1)
OUTPUT:::
(1, 64, 64)
INPUT:::
(1, 128, 128, 1)
OUTPUT:::
(1, 64, 64)
cloning from  lstm_1
startlyr =  7 input-shape -a (?, 64, 64)
7 :layer name is  flatten_1  ;  input_11:0
…
(?, 64) ==> activation_2 (?, 64)
11 :layer name is  dropout_2  ;  activation_22/Relu:0
(?, 64) ==> dropout_2 (?, 64)
12 :layer name is  dense_2  ;  dropout_23/cond/Merge:0
(?, 64) ==> dense_2 (?, 25)
13 :layer name is  activation_3  ;  dropout_23/cond/Merge:0
(?, 64) ==> activation_3 (?, 25)
nextBr c shape is  (?, 64)
lastDense shape is  (?, 35)
OTHER
NEW
Model: "model_22"
_________________________________________________________________
Layer (type)                 Output Shape              Param #   
=================================================================
input_11 (InputLayer)        (None, 64, 64)            0         
_________________________________________________________________
flatten_11 (Flatten)         (None, 4096)              0         
_________________________________________________________________
dropout_21 (Dropout)         (None, 4096)              0         
_________________________________________________________________
dense_16 (Dense)             (None, 64)                262208    
_________________________________________________________________
activation_22 (Activation)   (None, 64)                0         
_________________________________________________________________
dropout_23 (Dropout)         (None, 64)                0         
_________________________________________________________________
dense_18 (Dense)             (None, 35)                2275      
_________________________________________________________________
activation_24 (Activation)   (None, 35)                0         
=================================================================
Total params: 264,483
Trainable params: 2,275
Non-trainable params: 262,208
_________________________________________________________________
xtrain shape1: (2176, 1, 64, 64)
xTest shape1: (544, 1, 64, 64)
xtrain shape2 is  (2176, 64, 64)
xtrain3: (2176, 64, 64)
started fit at  2021-09-22 07:19:02.347854
Train on 2176 samples, validate on 544 samples
…
2176/2176 [==============================] - 0s 45us/step - loss: 3.0681 - acc: 0.1604 - f1_m: 0.0390 - precision_m: 0.6848 - recall_m: 0.0202 - val_loss: 3.1197 - val_acc: 0.1360 - val_f1_m: 0.0154 - val_precision_m: 0.5333 - val_recall_m: 0.0078
finished fit at  2021-09-22 07:19:15.039493
544/544 [==============================] - 0s 39us/step
Test loss: 3.1197126192205094
Test accuracy: 0.1360294073820114
Model exported and finished
PRESUMMARY
Model: "model_25"
_________________________________________________________________
Layer (type)                 Output Shape              Param #   
=================================================================
input_1 (InputLayer)         (None, 128, 128, 1)       0         
_________________________________________________________________
conv2d_1 (Conv2D)            (None, 121, 121, 24)      1560      
_________________________________________________________________
max_pooling2d_1 (MaxPooling2 (None, 15, 15, 24)        0         
_________________________________________________________________
conv2d_2 (Conv2D)            (None, 8, 8, 48)          73776     
_________________________________________________________________
activation_1 (Activation)    (None, 8, 8, 48)          0         
_________________________________________________________________
reshape_1 (Reshape)          (None, 64, 48)            0         
_________________________________________________________________
lstm_1 (LSTM)                (None, 64, 64)            28928     
_________________________________________________________________
flatten_1 (Flatten)          (None, 4096)              0         
=================================================================
Total params: 104,264
Trainable params: 104,264
Non-trainable params: 0
_________________________________________________________________
ENC MODEL 8
INPUT:::
(1, 128, 128, 1)
OUTPUT:::
(1, 4096)
INPUT:::
(1, 128, 128, 1)
OUTPUT:::
(1, 4096)
cloning from  flatten_1
startlyr =  8 input-shape -a (?, ?)
8 :layer name is  dropout_1  ;  input_13:0
…
_________________________________________________________________
xtrain shape1: (2176, 1, 4096)
xTest shape1: (544, 1, 4096)
xtrain shape2 is  (2176, 1, 4096)
xtrain3: (2176, 1, 4096)
started fit at  2021-09-22 07:19:32.416297
error fitting model with  8  frozen layers:  Error when checking target: expected activation_27 to have 3 dimensions, but got array with shape (2176, 35)
PRESUMMARY
Model: "model_29"
_________________________________________________________________
Layer (type)                 Output Shape              Param #   
=================================================================
input_1 (InputLayer)         (None, 128, 128, 1)       0         
_________________________________________________________________
conv2d_1 (Conv2D)            (None, 121, 121, 24)      1560      
_________________________________________________________________
max_pooling2d_1 (MaxPooling2 (None, 15, 15, 24)        0         
_________________________________________________________________
conv2d_2 (Conv2D)            (None, 8, 8, 48)          73776     
_________________________________________________________________
activation_1 (Activation)    (None, 8, 8, 48)          0         
_________________________________________________________________
reshape_1 (Reshape)          (None, 64, 48)            0         
_________________________________________________________________
lstm_1 (LSTM)                (None, 64, 64)            28928     
_________________________________________________________________
flatten_1 (Flatten)          (None, 4096)              0         
_________________________________________________________________
dropout_1 (Dropout)          (None, 4096)              0         
=================================================================
Total params: 104,264
Trainable params: 104,264
Non-trainable params: 0
_________________________________________________________________
ENC MODEL 9
INPUT:::
(1, 128, 128, 1)
OUTPUT:::
(1, 4096)
INPUT:::
(1, 128, 128, 1)
OUTPUT:::
(1, 4096)
cloning from  dropout_1
startlyr =  9 input-shape -a (?, ?)
9 :layer name is  dense_1  ;  input_15:0
…
_________________________________________________________________
xtrain shape1: (2176, 1, 4096)
xTest shape1: (544, 1, 4096)
xtrain shape2 is  (2176, 1, 4096)
xtrain3: (2176, 1, 4096)
started fit at  2021-09-22 07:19:50.273458
error fitting model with  9  frozen layers:  Error when checking target: expected activation_30 to have 3 dimensions, but got array with shape (2176, 35)
PRESUMMARY
Model: "model_33"
_________________________________________________________________
Layer (type)                 Output Shape              Param #   
=================================================================
input_1 (InputLayer)         (None, 128, 128, 1)       0         
_________________________________________________________________
conv2d_1 (Conv2D)            (None, 121, 121, 24)      1560      
_________________________________________________________________
max_pooling2d_1 (MaxPooling2 (None, 15, 15, 24)        0         
_________________________________________________________________
conv2d_2 (Conv2D)            (None, 8, 8, 48)          73776     
_________________________________________________________________
activation_1 (Activation)    (None, 8, 8, 48)          0         
_________________________________________________________________
reshape_1 (Reshape)          (None, 64, 48)            0         
_________________________________________________________________
lstm_1 (LSTM)                (None, 64, 64)            28928     
_________________________________________________________________
flatten_1 (Flatten)          (None, 4096)              0         
_________________________________________________________________
dropout_1 (Dropout)          (None, 4096)              0         
_________________________________________________________________
dense_1 (Dense)              (None, 64)                262208    
=================================================================
Total params: 366,472
Trainable params: 366,472
Non-trainable params: 0
_________________________________________________________________
ENC MODEL 10
INPUT:::
(1, 128, 128, 1)
OUTPUT:::
(1, 64)
INPUT:::
(1, 128, 128, 1)
OUTPUT:::
(1, 64)
cloning from  dense_1
startlyr =  10 input-shape -a (?, 64)
10 :layer name is  activation_2  ;  input_17:0
…
_________________________________________________________________
xtrain shape1: (2176, 1, 64)
xTest shape1: (544, 1, 64)
xtrain shape2 is  (2176, 1, 64)
xtrain3: (2176, 1, 64)
started fit at  2021-09-22 07:20:06.983617
error fitting model with  10  frozen layers:  Error when checking input: expected input_17 to have shape (None, 4096) but got array with shape (1, 64)
PRESUMMARY
Model: "model_37"
_________________________________________________________________
Layer (type)                 Output Shape              Param #   
=================================================================
input_1 (InputLayer)         (None, 128, 128, 1)       0         
_________________________________________________________________
conv2d_1 (Conv2D)            (None, 121, 121, 24)      1560      
_________________________________________________________________
max_pooling2d_1 (MaxPooling2 (None, 15, 15, 24)        0         
_________________________________________________________________
conv2d_2 (Conv2D)            (None, 8, 8, 48)          73776     
_________________________________________________________________
activation_1 (Activation)    (None, 8, 8, 48)          0         
_________________________________________________________________
reshape_1 (Reshape)          (None, 64, 48)            0         
_________________________________________________________________
lstm_1 (LSTM)                (None, 64, 64)            28928     
_________________________________________________________________
flatten_1 (Flatten)          (None, 4096)              0         
_________________________________________________________________
dropout_1 (Dropout)          (None, 4096)              0         
_________________________________________________________________
dense_1 (Dense)              (None, 64)                262208    
_________________________________________________________________
activation_2 (Activation)    (None, 64)                0         
=================================================================
Total params: 366,472
Trainable params: 366,472
Non-trainable params: 0
_________________________________________________________________
ENC MODEL 11
INPUT:::
(1, 128, 128, 1)
OUTPUT:::
(1, 64)
INPUT:::
(1, 128, 128, 1)
OUTPUT:::
(1, 64)
cloning from  activation_2
startlyr =  11 input-shape -a (?, 64)
11 :layer name is  dropout_2  ;  input_19:0
…
