…
Instructions for updating:
If using Keras pass *_constraint arguments to layers.
(?, 121, 121, 24)
WARNING:tensorflow:From /home/paul/.virtualenvs/cv/lib/python3.6/site-packages/keras/backend/tensorflow_backend.py:4070: The name tf.nn.max_pool is deprecated. Please use tf.nn.max_pool2d instead.

(?, 15, 15, 24)
(?, 8, 8, 48)
(?, 8, 8, 48)
inshape b (?, 8, 8, 48)
Model: "model_1"
_________________________________________________________________
Layer (type)                 Output Shape              Param #   
=================================================================
input_1 (InputLayer)         (None, 128, 128, 1)       0         
_________________________________________________________________
conv2d_1 (Conv2D)            (None, 121, 121, 24)      1560      
_________________________________________________________________
max_pooling2d_1 (MaxPooling2 (None, 15, 15, 24)        0         
_________________________________________________________________
conv2d_2 (Conv2D)            (None, 8, 8, 48)          73776     
_________________________________________________________________
activation_1 (Activation)    (None, 8, 8, 48)          0         
_________________________________________________________________
reshape_1 (Reshape)          (None, 64, 48)            0         
_________________________________________________________________
lstm_1 (LSTM)                (None, 64, 64)            28928     
_________________________________________________________________
flatten_1 (Flatten)          (None, 4096)              0         
_________________________________________________________________
dropout_1 (Dropout)          (None, 4096)              0         
_________________________________________________________________
dense_1 (Dense)              (None, 64)                262208    
_________________________________________________________________
activation_2 (Activation)    (None, 64)                0         
_________________________________________________________________
dropout_2 (Dropout)          (None, 64)                0         
_________________________________________________________________
dense_2 (Dense)              (None, 15)                975       
_________________________________________________________________
activation_3 (Activation)    (None, 15)                0         
=================================================================
Total params: 367,447
Trainable params: 367,447
Non-trainable params: 0
_________________________________________________________________
xtrain shape is  (1920, 128, 128, 1)
ytrain shape is  (1920, 15)
2021-09-20 01:44:36.414926: I tensorflow/stream_executor/platform/default/dso_loader.cc:44] Successfully opened dynamic library libcuda.so.1
…
Instructions for updating:
If using Keras pass *_constraint arguments to layers.
(?, 121, 121, 24)
WARNING:tensorflow:From /home/paul/.virtualenvs/cv/lib/python3.6/site-packages/keras/backend/tensorflow_backend.py:4070: The name tf.nn.max_pool is deprecated. Please use tf.nn.max_pool2d instead.

(?, 15, 15, 24)
(?, 8, 8, 48)
(?, 8, 8, 48)
inshape b (?, 8, 8, 48)
Model: "model_1"
_________________________________________________________________
Layer (type)                 Output Shape              Param #   
=================================================================
input_1 (InputLayer)         (None, 128, 128, 1)       0         
_________________________________________________________________
conv2d_1 (Conv2D)            (None, 121, 121, 24)      1560      
_________________________________________________________________
max_pooling2d_1 (MaxPooling2 (None, 15, 15, 24)        0         
_________________________________________________________________
conv2d_2 (Conv2D)            (None, 8, 8, 48)          73776     
_________________________________________________________________
activation_1 (Activation)    (None, 8, 8, 48)          0         
_________________________________________________________________
reshape_1 (Reshape)          (None, 64, 48)            0         
_________________________________________________________________
lstm_1 (LSTM)                (None, 64, 64)            28928     
_________________________________________________________________
flatten_1 (Flatten)          (None, 4096)              0         
_________________________________________________________________
dropout_1 (Dropout)          (None, 4096)              0         
_________________________________________________________________
dense_1 (Dense)              (None, 64)                262208    
_________________________________________________________________
activation_2 (Activation)    (None, 64)                0         
_________________________________________________________________
dropout_2 (Dropout)          (None, 64)                0         
_________________________________________________________________
dense_2 (Dense)              (None, 10)                650       
_________________________________________________________________
activation_3 (Activation)    (None, 10)                0         
=================================================================
Total params: 367,122
Trainable params: 367,122
Non-trainable params: 0
_________________________________________________________________
xtrain shape is  (1280, 128, 128, 1)
ytrain shape is  (1280, 10)
2021-09-20 07:28:20.032937: I tensorflow/stream_executor/platform/default/dso_loader.cc:44] Successfully opened dynamic library libcuda.so.1
…
