fta (?, 255, 94)
pool8b (?, 63, 47, 1)
tr8a (?, ?, ?, 1)
tr9a (?, ?, ?, 1)
tr10a (?, ?, ?, 1)
Model: "model_1"
_________________________________________________________________
Layer (type)                 Output Shape              Param #   
=================================================================
input_1 (InputLayer)         (None, 128, 128, 1)       0         
_________________________________________________________________
reshape_1 (Reshape)          (None, 16384, 1)          0         
_________________________________________________________________
lambda_1 (Lambda)            (None, 16384, 1)          0         
_________________________________________________________________
conv1d_1 (Conv1D)            (None, 16377, 24)         216       
_________________________________________________________________
max_pooling1d_1 (MaxPooling1 (None, 2047, 24)          0         
_________________________________________________________________
activation_1 (Activation)    (None, 2047, 24)          0         
_________________________________________________________________
lstm_1 (LSTM)                (None, 2047, 64)          22784     
_________________________________________________________________
conv1d_2 (Conv1D)            (None, 2040, 48)          24624     
_________________________________________________________________
max_pooling1d_2 (MaxPooling1 (None, 255, 48)           0         
_________________________________________________________________
activation_2 (Activation)    (None, 255, 48)           0         
_________________________________________________________________
lambda_2 (Lambda)            (None, 255, 94)           0         
_________________________________________________________________
reshape_2 (Reshape)          (None, 255, 94, 1)        0         
_________________________________________________________________
max_pooling2d_1 (MaxPooling2 (None, 63, 47, 1)         0         
_________________________________________________________________
conv2d_transpose_1 (Conv2DTr (None, 64, 54, 1)         17        
_________________________________________________________________
activation_3 (Activation)    (None, 64, 54, 1)         0         
_________________________________________________________________
conv2d_transpose_2 (Conv2DTr (None, 64, 61, 1)         9         
_________________________________________________________________
activation_4 (Activation)    (None, 64, 61, 1)         0         
_________________________________________________________________
conv2d_transpose_3 (Conv2DTr (None, 64, 64, 1)         5         
_________________________________________________________________
activation_5 (Activation)    (None, 64, 64, 1)         0         
_________________________________________________________________
reshape_3 (Reshape)          (None, 64, 64)            0         
_________________________________________________________________
flatten_1 (Flatten)          (None, 4096)              0         
_________________________________________________________________
dropout_1 (Dropout)          (None, 4096)              0         
_________________________________________________________________
dense_1 (Dense)              (None, 64)                262208    
_________________________________________________________________
activation_6 (Activation)    (None, 64)                0         
_________________________________________________________________
dropout_2 (Dropout)          (None, 64)                0         
_________________________________________________________________
dense_2 (Dense)              (None, 25)                1625      
_________________________________________________________________
activation_7 (Activation)    (None, 25)                0         
=================================================================
Total params: 311,488
Trainable params: 311,488
Non-trainable params: 0
_________________________________________________________________
xtrain shape is  (3200, 128, 128, 1)
ytrain shape is  (3200, 25)
2021-09-21 08:35:17.273595: I tensorflow/stream_executor/platform/default/dso_loader.cc:44] Successfully opened dynamic library libcuda.so.1
…
WARNING:tensorflow:From /home/paul/.virtualenvs/cv/lib/python3.6/site-packages/keras/backend/tensorflow_backend.py:4070: The name tf.nn.max_pool is deprecated. Please use tf.nn.max_pool2d instead.

act4 a (?, 2047, 24)
ls5 a shape is  (?, 2047, 64)
7a (?, 255, 48)
WARNING:tensorflow:From trainESC50b32.3.single.fft.keras.py:192: The name tf.spectral.irfft is deprecated. Please use tf.signal.irfft instead.

ifta (?, 255, 94)
pool8b (?, 63, 47, 1)
tr8a (?, ?, ?, 1)
tr9a (?, ?, ?, 1)
tr10a (?, ?, ?, 1)
Model: "model_1"
_________________________________________________________________
Layer (type)                 Output Shape              Param #   
=================================================================
input_1 (InputLayer)         (None, 128, 128, 1)       0         
_________________________________________________________________
reshape_1 (Reshape)          (None, 16384, 1)          0         
_________________________________________________________________
lambda_1 (Lambda)            (None, 16384, 1)          0         
_________________________________________________________________
conv1d_1 (Conv1D)            (None, 16377, 24)         216       
_________________________________________________________________
max_pooling1d_1 (MaxPooling1 (None, 2047, 24)          0         
_________________________________________________________________
activation_1 (Activation)    (None, 2047, 24)          0         
_________________________________________________________________
lstm_1 (LSTM)                (None, 2047, 64)          22784     
_________________________________________________________________
conv1d_2 (Conv1D)            (None, 2040, 48)          24624     
_________________________________________________________________
max_pooling1d_2 (MaxPooling1 (None, 255, 48)           0         
_________________________________________________________________
activation_2 (Activation)    (None, 255, 48)           0         
_________________________________________________________________
lambda_2 (Lambda)            (None, 255, 94)           0         
_________________________________________________________________
reshape_2 (Reshape)          (None, 255, 94, 1)        0         
_________________________________________________________________
max_pooling2d_1 (MaxPooling2 (None, 63, 47, 1)         0         
_________________________________________________________________
conv2d_transpose_1 (Conv2DTr (None, 64, 54, 1)         17        
_________________________________________________________________
activation_3 (Activation)    (None, 64, 54, 1)         0         
_________________________________________________________________
conv2d_transpose_2 (Conv2DTr (None, 64, 61, 1)         9         
_________________________________________________________________
activation_4 (Activation)    (None, 64, 61, 1)         0         
_________________________________________________________________
conv2d_transpose_3 (Conv2DTr (None, 64, 64, 1)         5         
_________________________________________________________________
activation_5 (Activation)    (None, 64, 64, 1)         0         
_________________________________________________________________
reshape_3 (Reshape)          (None, 64, 64)            0         
_________________________________________________________________
flatten_1 (Flatten)          (None, 4096)              0         
_________________________________________________________________
dropout_1 (Dropout)          (None, 4096)              0         
_________________________________________________________________
dense_1 (Dense)              (None, 64)                262208    
_________________________________________________________________
activation_6 (Activation)    (None, 64)                0         
_________________________________________________________________
dropout_2 (Dropout)          (None, 64)                0         
_________________________________________________________________
dense_2 (Dense)              (None, 15)                975       
_________________________________________________________________
activation_7 (Activation)    (None, 15)                0         
=================================================================
Total params: 310,838
Trainable params: 310,838
Non-trainable params: 0
_________________________________________________________________
xtrain shape is  (1920, 128, 128, 1)
ytrain shape is  (1920, 15)
2021-09-21 13:54:19.107912: I tensorflow/stream_executor/platform/default/dso_loader.cc:44] Successfully opened dynamic library libcuda.so.1
…
WARNING:tensorflow:From /home/paul/.virtualenvs/cv/lib/python3.6/site-packages/keras/backend/tensorflow_backend.py:4070: The name tf.nn.max_pool is deprecated. Please use tf.nn.max_pool2d instead.

act4 a (?, 2047, 24)
ls5 a shape is  (?, 2047, 64)
7a (?, 255, 48)
WARNING:tensorflow:From trainESC50b32.3.single.fft.keras.py:192: The name tf.spectral.irfft is deprecated. Please use tf.signal.irfft instead.

ifta (?, 255, 94)
pool8b (?, 63, 47, 1)
tr8a (?, ?, ?, 1)
tr9a (?, ?, ?, 1)
tr10a (?, ?, ?, 1)
Model: "model_1"
_________________________________________________________________
Layer (type)                 Output Shape              Param #   
=================================================================
input_1 (InputLayer)         (None, 128, 128, 1)       0         
_________________________________________________________________
reshape_1 (Reshape)          (None, 16384, 1)          0         
_________________________________________________________________
lambda_1 (Lambda)            (None, 16384, 1)          0         
_________________________________________________________________
conv1d_1 (Conv1D)            (None, 16377, 24)         216       
_________________________________________________________________
max_pooling1d_1 (MaxPooling1 (None, 2047, 24)          0         
_________________________________________________________________
activation_1 (Activation)    (None, 2047, 24)          0         
_________________________________________________________________
lstm_1 (LSTM)                (None, 2047, 64)          22784     
_________________________________________________________________
conv1d_2 (Conv1D)            (None, 2040, 48)          24624     
_________________________________________________________________
max_pooling1d_2 (MaxPooling1 (None, 255, 48)           0         
_________________________________________________________________
activation_2 (Activation)    (None, 255, 48)           0         
_________________________________________________________________
lambda_2 (Lambda)            (None, 255, 94)           0         
_________________________________________________________________
reshape_2 (Reshape)          (None, 255, 94, 1)        0         
_________________________________________________________________
max_pooling2d_1 (MaxPooling2 (None, 63, 47, 1)         0         
_________________________________________________________________
conv2d_transpose_1 (Conv2DTr (None, 64, 54, 1)         17        
_________________________________________________________________
activation_3 (Activation)    (None, 64, 54, 1)         0         
_________________________________________________________________
conv2d_transpose_2 (Conv2DTr (None, 64, 61, 1)         9         
_________________________________________________________________
activation_4 (Activation)    (None, 64, 61, 1)         0         
_________________________________________________________________
conv2d_transpose_3 (Conv2DTr (None, 64, 64, 1)         5         
_________________________________________________________________
activation_5 (Activation)    (None, 64, 64, 1)         0         
_________________________________________________________________
reshape_3 (Reshape)          (None, 64, 64)            0         
_________________________________________________________________
flatten_1 (Flatten)          (None, 4096)              0         
_________________________________________________________________
dropout_1 (Dropout)          (None, 4096)              0         
_________________________________________________________________
dense_1 (Dense)              (None, 64)                262208    
_________________________________________________________________
activation_6 (Activation)    (None, 64)                0         
_________________________________________________________________
dropout_2 (Dropout)          (None, 64)                0         
_________________________________________________________________
dense_2 (Dense)              (None, 10)                650       
_________________________________________________________________
activation_7 (Activation)    (None, 10)                0         
=================================================================
Total params: 310,513
Trainable params: 310,513
Non-trainable params: 0
_________________________________________________________________
xtrain shape is  (1280, 128, 128, 1)
ytrain shape is  (1280, 10)
2021-09-21 17:55:21.595039: I tensorflow/stream_executor/platform/default/dso_loader.cc:44] Successfully opened dynamic library libcuda.so.1
…
